…
://localhost:8080/"},"executionInfo":{"status":"ok","timestamp":1701548194326,"user_tz":300,"elapsed":215,"user":{"displayName":"Erin","userId":"17507641661412215667"}}},"cell_type":"code","source":["model = neural_model()\n","print(model.summary())"],"execution_count":80,"outputs":[{"output_type":"stream","name":"stdout","text":["Model: \"sequential_2\"\n","_________________________________________________________________\n"," Layer (type)                Output Shape              Param #   \n","=================================================================\n"," conv2d_8 (Conv2D)           (None, 28, 28, 60)        1560      \n","                                                                 \n"," conv2d_9 (Conv2D)           (None, 24, 24, 60)        90060     \n","                                                                 \n"," max_pooling2d_4 (MaxPoolin  (None, 12, 12, 60)        0         \n"," g2D)                                                            \n","                                                                 \n"," conv2d_10 (Conv2D)          (None, 10, 10, 30)        16230     \n","                                                                 \n"," conv2d_11 (Conv2D)          (None, 8, 8, 30)          8130      \n","                                                                 \n"," max_pooling2d_5 (MaxPoolin  (None, 4, 4, 30)          0         \n"," g2D)                                                            \n","                                                                 \n"," flatten_2 (Flatten)         (None, 480)               0         \n","                                                                 \n"," dense_4 (Dense)             (None, 500)               240500    \n","                                                                 \n"," dropout_2 (Dropout)         (None, 500)               0         \n","                                                                 \n"," dense_5 (Dense)             (None, 43)                21543     \n","                                                                 \n","=================================================================\n","Total params: 378023 (1.44 MB)\n","Trainable params: 378023 (1.44 MB)\n","Non-trainable params: 0 (0.00 Byte)\n","_________________________________________________________________\n","None\n"]}]},{"metadata":{"id":"esqSG0h72YvX","outputId":"9793a9f3-
…
